pretrained/LIFFireNet.pth (torch, 313999 bytes, 25 tensors)

leak f4 [32, 1, 1]
00000000: 03b6 80c0 d564 87c0 0a0f 86c0 e5c0 7fc0
00000010: 3e74 85c0 d131 7ac0 55bc 8bc0 ff93 77c0
00000020: e55d 82c0 b3bf 89c0 21e6 80c0 7c4f 8cc0
00000030: 20fd 86c0 786d 88c0 aeda 8bc0 cb12 8cc0
00000040: 3fe2 83c0 4ff5 82c0 86c6 83c0 70af 76c0
00000050: 89aa 8ac0 1b9e 7ec0 f67a 85c0 de0c 82c0
00000060: 7429 7ec0 a9dd 81c0 519e 57c0 b00c 6ac0
00000070: 43c1 80c0 c2ee 6fc0 4e69 90c0 d573 82c0
-4.022218 -4.2310586 -4.189336 -3.9961483 -4.1704397 -3.9092906 -4.3667397 -3.868408
-4.0739617 -4.304651 -4.028092 -4.3847027 -4.218399 -4.263363 -4.3704443 -4.377294
-4.121368 -4.092445 -4.117984 -3.8544579 -4.3333173 -3.9784 -4.17126 -4.0640707
-3.97128 -4.058308 -3.3690379 -3.6570244 -4.0235915 -3.7489476 -4.5128546 -4.0766397

thresh f4 [32, 1, 1]
00000000: a47e 603f c4a4 1d3f 2925 6f3f cf54 553f
00000010: 3f4e 1c3f 440d 703f 6bce 123f 3109 813f
00000020: a94c 383f d248 143f 95c6 373f 56b8 3e3f
00000030: b95e 703f 0703 183f 3b86 063f 9b3a 183f
00000040: 8cbd 273f de52 5a3f 93e3 1d3f 0c67 4d3f
00000050: d55a 303f 3c8c 6e3f 777f 3f3f 8c6a 413f
00000060: 7ba2 273f 1602 293f e2dd 0c3f 4954 693f
00000070: d279 5e3f 7e13 653f 533e 4a3f 21d3 1b3f
0.8769324 0.6157954 0.93416077 0.8333253 0.61056894 0.9377024 0.5734622 1.008093
0.71991974 0.57923615 0.7178739 0.74500024 0.93894535 0.5937962 0.5254857 0.59464425
0.655236 0.85282695 0.61675376 0.8023536 0.688886 0.9318273 0.7480387 0.755532
0.654823 0.6601881 0.55026066 0.91144234 0.86904633 0.8948287 0.7900135 0.6086903

weight f4 [32, 2, 3, 3]
00000000: d861 9ebe 12a0 303e b1c6 823e db73 3c3d
00000010: 1d09 ccbe a1d4 393f 71f1 dabe c4c8 1e3f
00000020: 36bf 06bf e211 32be 2571 e83e 0d7b 7fbe
00000030: 3c98 1a3f ed85 00bf 1cca 0fbf dfb8 e3be
00000040: da2a 143d de85 273f 8c5d 68be c914 e53e
00000050: 2b6d 70bd 43cf e4bd bcab 4d3f 3f57 f0be
00000060: 12b9 273c 9f58 4e3f 968d e5bc 8a5f 203f
00000070: 79ad 22bb e7fe 383f 5133 09bf 4e03 fd3d
00000080: 207e 233d 221d b73e 6eaa f63e 9cb4 253f
00000090: cecc 97bd 545e a9bd 5b6a e73e 1578 4fbe
000000a0: 0d7c 0d3f 7b03 d8be ed6b 24be 461a 2bbd
000000b0: 8ccf cc3e bd92 d63e 3102 11be 5aae 07bf
000000c0: 7755 963e 4350 8c3e b5ed b93e 407b f4be
000000d0: acbd 013f 5eb1 703f fdf1 313e 1709 25bf
000000e0: 80f1 ed3e 5c6b ccbe af74 a03e a217 bb3d
000000f0: 7c34 8fbe b5a2 963e b776 27bf 77d7 3d3e
00000100: 59a9 c9be df5a 62bd 68b1 003e 8a86 213f
00000110: a909 c6be c1f7 f43e c743 afbd cd95 9dbe
00000120: a104 1fbf d318 14bf 34b3 443f 6f89 c3bd
00000130: d108 633e 6329 c73e a9b0 033f 9d6a 453f
00000140: 15b3 413f 256b 01bf 7eae 10bd 7852 71be
00000150: 76a5 67be 54ae a63e e081 843f 106d e3be
00000160: 943e 243f 8e7d 73be 9bec 9dbc 4c73 2c3f
00000170: 15b7 2fbe ee8c 643e 9b63 cabe 0d83 163f
00000180: 1d69 3e3d 38b1 02bf d0b2 493e d885 10bf
00000190: d42d 1abf 6cb3 0b3e d3bd 0f3f c00c 1ebe
000001a0: 4c20 c13e cef8 0f3f bab1 f43e 2a2b d8be
000001b0: d191 773d 9a99 fbbd d9a2 23bf f45a dd3e
000001c0: db22 583f c509 233f 52b1 673e 0655 993e
000001d0: 1689 b2be d0b8 333f 8909 ebbd fae0 e7be
000001e0: 1683 133f 1989 383f cdb0 d1be 1943 653f
000001f0: 192b e53e 7b6c 9bbe 3ec8 bbbd cbc9 243f
00000200: 4c37 28bf 1d5f 87bd 4dc6 af3e 402f 24bf
00000210: 23b3 d83e b5f9 f33e 0750 dd3e bf3f e7be
00000220: 5d81 333f cd59 e0be df16 5b3f b7b0 2bbf
00000230: c723 17bf 6bfe ed3e eab1 c43d 57ee 313d
00000240: 9041 ecbe 4730 8dbe ea3c 24be 700e 36bf
00000250: 6c3e c73d 1384 8a3e 15fc d23d e6ec cb3e
00000260: 9d47 433f cbbe e73c 0335 85be d0b6 2cbe
00000270: b608 f3be 7b68 b0be d8b9 683e 30ab 8b3d
00000280: fb48 3e3f 6a65 f23d 64f0 383f 96ae d5be
00000290: ff18 b3bd d008 7f3f 6192 7b3f a246 76be
000002a0: dbcc d13e d392 ab3e 954d 13be 12c7 9bbd
000002b0: 061f ba3e 0562 e1be c5c1 f13e d969 2e3f
000002c0: 269d 21bd a1d7 4b3f 26bf 3d3e 7321 eb3e
000002d0: 7c7a 533f 6d82 10be 4e1b c43e 447e b6bd
000002e0: 3ae1 1ebd 8875 1abe 0c48 8d3d 51a5 72be
000002f0: aeb8 323e d573 0a3e 6afe 173f 2b07 3e3d
00000300: 11d2 f13d c660 87be 0c34 1cbf 9c55 7a3e
00000310: b61a 893d 3549 cfbe 8127 5cbd e360 833e
00000320: 55f4 8ebe d57d 323f bf0d 7c3e 9f19 4b3e
00000330: 3251 c93e bcf9 babd b3be 8c3e c233 243f
00000340: d995 e03d acce 003e d825 463e d2c2 353f
00000350: ecf8 01be 02ef 85be 2a97 f63e c93b 01bf
00000360: b668 f03c c7c7 1abe 72f8 1b3f 0922 fbbe
00000370: 4e50 063f c0a2 663f c8c7 5e3e 51fa 953d
00000380: a427 393f 10c4 bcbe 84ad 32be b34c 6fbe
00000390: 34b4 7ebe 4629 cd3c 934f 133e 32fc acbe
000003a0: d660 3ebf 0bc6 aa3d 4022 653d de76 b43e
000003b0: 9734 293f e7f1 6a3f 1e9b 8fbe 9f9a 933d
000003c0: 1167 b0be 962f 39bf e01d 03bf 8c2a 503f
000003d0: aff0 1d3f 1e31 1e3f 7cf9 1e3f fbe6 9fbe
000003e0: e0db 983e 8ce5 1c3f c3fc 99be 8288 1a3f
000003f0: 1f8f 183f 4fe2 4e3f a55d 45be b9e9 363f
-0.30934024 0.17248562 0.25542215 0.046008926 -0.39850703 0.7259007 -0.4276233 0.62025094
-0.52635515 -0.17389634 0.45398822 -0.24949284 0.6038854 -0.50204355 -0.5616777 -0.44476983
0.03617368 0.6543864 -0.22691935 0.4474242 -0.05869786 -0.111723445 0.8034017 -0.46941563
0.010236995 0.80603975 -0.028021615 0.6264578 -0.0024822636 0.7226395 -0.5359393 0.12354146
0.039915204 0.35764414 0.48176903 0.64728713 -0.0741211 -0.08269945 0.4519833 -0.20260651
0.5526741 -0.42190155 -0.16056795 -0.041773103 0.40002096 0.41908827 -0.14160992 -0.53000414
0.2936208 0.27404985 0.3631417 -0.47750282 0.5068004 0.9402064 0.17377467 -0.64466995
0.46473312 -0.3992566 0.31339023 0.09135367 -0.2796973 0.2942101 -0.6541552 0.18539225
-0.39387015 -0.055262443 0.12567675 0.63095915 -0.38679245 0.4784527 -0.085578494 -0.3077835
-0.6211644 -0.5785038 0.7683594 -0.09547698 0.22171332 0.38898763 0.51441437 0.77115804
0.7566388 -0.50554115 -0.03532266 -0.23566616 -0.22621712 0.32554877 1.0352135 -0.44419146
0.64157987 -0.23778364 -0.019277861 0.6736343 -0.17159684 0.22319385 -0.39529118 0.5879372
0.046486963 -0.51051664 0.19697118 -0.5645423 -0.6022618 0.13642663 0.56149024 -0.15434551
0.37719953 0.5623902 0.47791845 -0.42220432 0.060441796 -0.122851565 -0.6392036 0.43233454
0.84428185 0.6368678 0.22626236 0.2994768 -0.34870213 0.70203876 -0.11476428 -0.4528883
0.57621896 0.72084194 -0.409552 0.8955551 0.44759443 -0.30356202 -0.091690525 0.6437041
-0.65709376 -0.06609938 0.3433098 -0.641346 0.4232417 0.4765145 0.4322512 -0.45165822
0.7011927 -0.43818513 0.85581774 -0.6706652 -0.59038967 0.46483168 0.09604247 0.04344019
-0.4614377 -0.27575895 -0.16038862 -0.7111578 0.09728703 0.2705389 0.10301987 0.39829177
0.7628115 0.02828922 -0.26017007 -0.16866612 -0.47467583 -0.34454712 0.22727144 0.06819761
0.7433011 0.118357494 0.72241807 -0.4173476 -0.08745002 0.9962282 0.9827023 -0.24050382
0.40976605 0.33510455 -0.14385064 -0.07606329 0.36351794 -0.44020095 0.47218147 0.6813026
-0.03945651 0.796259 0.18529949 0.45923957 0.8260877 -0.14112253 0.38302082 -0.08910802
-0.03878901 -0.15083897 0.068985075 -0.23695876 0.17453262 0.13520749 0.5937258 0.046393555
0.11807645 -0.2644102 -0.6101692 0.2444672 0.06694548 -0.4048554 -0.05374861 0.25659856
-0.27920786 0.69723254 0.24614619 0.19833992 0.3931976 -0.09129664 0.27489242 0.64141476
0.10966081 0.12578839 0.19350374 0.710004 -0.12692612 -0.2615891 0.48162204 -0.5048185
0.029346805 -0.15115272 0.6092597 -0.49049404 0.52466285 0.90092087 0.21755898 0.07323135
0.7232611 -0.36868334 -0.17449003 -0.23369102 -0.2487343 0.025044095 0.14385824 -0.3378616
-0.7436651 0.08338555 0.055940866 0.35246938 0.6609587 0.91775364 -0.28048033 0.07207226
-0.34453633 -0.72338235 -0.5121746 0.8131492 0.6169538 0.61793697 0.6209943 -0.31230912
0.2985525 0.6128776 -0.30075654 0.60364544 0.59593385 0.8081407 -0.19274004 0.7145038

leak f4 [32, 1, 1]
00000000: 0482 7fc0 1ae6 73c0 6ad8 7ac0 2d70 6ec0
00000010: 20ed 7dc0 53eb 76c0 600b 80c0 2c9a 7bc0
00000020: 73ee 77c0 17b7 74c0 d161 6cc0 368f 77c0
00000030: c5c6 6fc0 8797 73c0 fce8 69c0 eb08 7ac0
00000040: b076 81c0 82f5 82c0 4632 78c0 2448 83c0
00000050: 4ca4 6ec0 f502 89c0 96b8 82c0 cb5d 83c0
00000060: 625c 6fc0 754f 76c0 e4bd 7cc0 67c3 75c0
00000070: e9f8 81c0 1ea4 73c0 e986 7dc0 e1e7 74c0
-3.9923105 -3.8109193 -3.9194589 -3.7255967 -3.967598 -3.858113 -4.0013885 -3.931285
-3.8739288 -3.823675 -3.6934702 -3.868116 -3.746507 -3.8061235 -3.6548452 -3.9067943
-4.045738 -4.092469 -3.8780684 -4.102556 -3.728778 -4.281611 -4.0850325 -4.1051993
-3.7400136 -3.8485997 -3.94909 -3.8400514 -4.0616345 -3.806892 -3.9613593 -3.8266528

thresh f4 [32, 1, 1]
00000000: 882b 3a3f dc96 353f c434 2c3f 8f9f 3e3f
00000010: 79ab 303f a7cf 603f 13d9 653f d3c1 333f
00000020: f611 4d3f 5430 6e3f f738 343f abba 4b3f
00000030: 5777 113f 7f35 753f 6ab8 7f3f dea2 613f
00000040: 0a72 4d3f 7d48 503f a340 4b3f 4b48 403f
00000050: a360 5b3f f753 7f3f 0b8a 433f f653 4a3f
00000060: 52a6 763f bf30 723f 5407 4d3f bc82 4f3f
00000070: 4644 6d3f 2c87 663f b62d cf3e 963e 493f
0.72722673 0.7093332 0.67268014 0.7446222 0.69011647 0.8781685 0.89784354 0.7021763
0.8010553 0.9304249 0.7039942 0.7958171 0.56822723 0.95784754 0.9989077 0.8813914
0.80252135 0.8136061 0.793955 0.7511031 0.8569433 0.99737495 0.7638251 0.79034364
0.96347535 0.9460563 0.80089307 0.8105886 0.926823 0.90050006 0.40464562 0.78611124

weight f4 [32, 32, 3, 3]
00000000: 9262 c73c 11d9 673b bf44 27bd 40d3 3e3d
00000010: d69d 9abd 86c2 d7ba 0ac8 8cbd 6466 f63c
00000020: df90 a93d 6538 ef3d cdc4 16be 87d5 bb3c
00000030: 3512 d93d ab0f 99bb c932 e93d c193 603e
00000040: b15b 1d3e 8a02 e7bd fa09 96bc 8be1 cb3c
00000050: cce3 053c d2ef 003d 335d 293e 3484 9ebb
00000060: a8d9 ab3d 2b9b 463b 515c f53d 338e 17bd
00000070: eaff 02be 1f6f 8e3d 9a11 56be 5a7a d7bd
00000080: 089a a83d acc3 173d 5344 1c3e 6fc4 eebd
00000090: a1f6 ce3d e97a 9a3d 23d4 5a3d ab33 b73d
000000a0: 4cb5 cfbd c25c b8bd 9c67 ee3d 98df 35bd
000000b0: 90d0 f13d 4e80 6ebe 8044 1e3c 9ead a3bd
000000c0: e515 cf3d 1469 53be 5d72 2fbe 47fe 09be
000000d0: e645 fcbd 1528 3c3d fc7f f83d cb75 8abd
000000e0: 929c 90bd 94dd 6ebc baaf c5bc 2746 483e
000000f0: 2e71 463d 382a 013e 02ba 2d3e 224e f8bd
00000100: e7ac a7bd 6421 37be abbc 13be 95f8 143e
00000110: b891 753d a4e3 233e df2b 803d 05bd 14be
00000120: 7288 f03d 4483 aebd 4573 d23c 1cf8 913e
00000130: 3117 dc3d b73a cabd 3c99 da3d 6b9a 4a3d
00000140: 9e82 31bd d2a8 2a3e 96b4 133e 40c7 32be
00000150: 2471 e83d fe35 a03e da5c 803c e3be f23d
00000160: 49cb 473e 94d2 1b3e 684f 06be 5367 2dbe
00000170: e1bb 92bc eb7b 023d c6cb cbbd 496d 6b3c
00000180: ceff 0c3d 2e29 92bd e883 86bd 0564 5dbe
00000190: 37ce dd3a 1fcc 23be 44bc d6bc 1dbd 3b3c
000001a0: 9606 3abe 805a 5b3d b30c 2c3e 2b9f d33d
000001b0: a744 16be bc4f 57be 19b4 05bd ea29 e2bd
000001c0: 4e49 91bd f6c6 3dbd 9ca0 823e e803 863a
000001d0: ee35 cebc d995 0fbe 532a 01bd 1e90 6a3d
000001e0: 184e f7bd 463b 1e3e 04b5 cabc fc4f f73c
000001f0: 86c0 843d 1eba ab3d 6e69 cf3d e3f6 e5bc
00000200: a0a9 5b3d 87e5 b5bd 28d8 193d 7d6d 39be
00000210: d344 923c aa19 a63e 36a0 9fbb 76f4 8d3d
00000220: 46be 30be 0d79 61bd a0c1 533d bc94 8ebc
00000230: f883 323d 0002 933d 0b57 3b3e c56b 3a3d
00000240: 1d56 d53d 8956 e8bd 10c9 83bd 48c0 81ba
00000250: 2871 00be 97ac 3dbe c45e 293d 77c3 503e
00000260: 67e2 393c 3cb5 ee3d 28b6 b43d bf19 42bd
00000270: c24c d23d aa67 babd 9109 61bb 502e 50be
00000280: 3315 9abc bdaf d43d 633b 823d 56bd 13be
00000290: 4255 d23c f442 413e b786 93bd eb57 b23d
000002a0: 565f 70bd 10aa 01bd a748 c83c 5138 3dbd
000002b0: 1343 86bd 52c9 34be da97 0dbe 2919 7ebd
000002c0: 944a e9bd c203 8bbd 2fc4 2b3e 9678 acbb
000002d0: 95dc 0dbd 11b5 593c 4fdb 78bd 0fc5 2c3c
000002e0: 5be8 d8bb 550d 4f3e 5113 883d 6301 0b3e
000002f0: 8c55 f53c bb04 17be ec0a d3bd dee3 6fbe
00000300: 1ebc 22be 89c8 79bc 8af2 66be 8ee5 d03d
00000310: 7778 303d 0039 bebd d407 e8bb 12e4 21be
00000320: 60fc 9cbd 42c3 8d3d e8a6 edbd 819a 20be
00000330: 4c0f b83d 9286 37bd 4e79 fabd ef6f 27be
00000340: e7c1 6cbd 9a68 c93c 8f0e e43d 143c 063c
00000350: f982 fc3d dea2 d33b af9f 0c3e 6a8e 293e
00000360: b57d 9ebd 4894 32be b28a 94bd 92f3 08be
00000370: 0b3c 61bc 8ff9 01be db3c 493e 5066 32bd
00000380: a78b 31bd 8198 dfbd 3054 3bbe 336f 073e
00000390: 80fd 7e3d 1103 543e ebc7 6c3e e0d7 143e
000003a0: 0a56 6e3e 17d1 e63d f731 87bc d067 94be
000003b0: de78 1abd 7e24 6ebd 3c32 18be dac7 1ebe
000003c0: ef72 17be 259a 553d 2428 02be 987f 89be
000003d0: 4f42 13bb 4ed2 633e 0007 3ebe cb5c 053c
000003e0: 092c 3abc 8bd3 8bbe 8519 6a3d 6784 1abe
000003f0: 0ff2 92bd eed1 47bd 1804 f43d c447 37be
0.024338994 0.0035377184 -0.040837046 0.046588182 -0.07549636 -0.0016461171 -0.06874092 0.03007812
0.08279585 0.11680678 -0.14723511 0.022928966 0.10599176 -0.004671057 0.113866396 0.21931364
0.15367009 -0.11279781 -0.018315304 0.02488782 0.008171987 0.03147871 0.16539459 -0.004837537
0.08391124 0.003030489 0.119804986 -0.037000846 -0.12792936 0.069547884 -0.20905152 -0.105213836
0.08232504 0.03705184 0.15260439 -0.116585605 0.101056345 0.075429745 0.053424966 0.08945402
-0.101420015 -0.09002067 0.11640856 -0.04440269 0.11807358 -0.23291132 0.009659886 -0.07992099
0.10111598 -0.20645553 -0.1713347 -0.13475905 -0.123180196 0.045936663 0.12133786 -0.067607485
-0.070611134 -0.0145791955 -0.024131645 0.19558011 0.04844778 0.12613761 0.16965488 -0.12124278
-0.081872754 -0.17883831 -0.1442744 0.14547952 0.05995342 0.16004807 0.06258368 -0.1452523
0.11744775 -0.08521131 0.02568973 0.28509605 0.10746611 -0.0987448 0.106737584 0.04946367
-0.043337457 0.16665962 0.14424357 -0.1745882 0.11349705 0.31291193 0.015669275 0.11852815
0.19511141 0.15217048 -0.13116229 -0.16933946 -0.017911853 0.03185646 -0.09950976 0.014369317
0.03442364 -0.07136761 -0.06568128 -0.21620186 0.0016922419 -0.15995835 -0.026212819 0.011458662
-0.18166575 0.053553104 0.1680172 0.10333093 -0.14674626 -0.2102651 -0.032642458 -0.11043151
-0.0709406 -0.046332322 0.2551316 0.0010224553 -0.0251722 -0.14022006 -0.031534504 0.057266347
-0.12075442 0.15452299 -0.024744518 0.030189507 0.064820334 0.083851084 0.10127531 -0.028071826
0.053628564 -0.088816695 0.03755966 -0.18108173 0.017855084 0.32441455 -0.0048713936 0.06931393
-0.17260084 -0.055047084 0.051698327 -0.017404906 0.043582886 0.07178116 0.18294923 0.045512933
0.104168154 -0.1134463 -0.06434834 -0.0009899223 -0.12543166 -0.18522869 0.04135014 0.20387064
0.011345482 0.116556615 0.08823806 -0.047387835 0.10268547 -0.091018036 -0.0034337977 -0.20330167
-0.018808937 0.10385082 0.06358983 -0.14427695 0.02567542 0.18873197 -0.07203429 0.08708175
-0.05868467 -0.031656325 0.024448706 -0.046196286 -0.06555762 -0.17654923 -0.13827458 -0.062035713
-0.11391178 -0.06787826 0.16774057 -0.0052633984 -0.03463419 0.0132877985 -0.060756024 0.010545029
-0.006619496 0.2021993 0.06644309 0.13574748 0.029948018 -0.14747898 -0.103048176 -0.23426768
-0.15892074 -0.015245565 -0.22553459 0.10200034 0.043083634 -0.09288216 -0.0070810113 -0.15809658
-0.07665324 0.06922008 -0.116041005 -0.15683939 0.08987293 -0.04480607 -0.12230168 -0.16351293
-0.057802107 0.02458601 0.11135589 0.008193035 0.123296686 0.0064586243 0.1373279 0.16558233
-0.077388205 -0.17439377 -0.072530165 -0.13374165 -0.0137472255 -0.12692855 0.19652121 -0.043554604
-0.043346073 -0.1091776 -0.18293834 0.13226013 0.062253475 0.20704295 0.23123138 0.14535475
0.23275009 0.112703495 -0.016503317 -0.28985453 -0.037712924 -0.05814027 -0.14862913 -0.15505925
-0.14789937 0.052148957 -0.12710625 -0.2685516 -0.0022469943 0.22248194 -0.18557358 0.008139799
-0.011363038 -0.27309832 0.057153244 -0.1508957 -0.07175075 -0.04878419 0.11914843 -0.1789847

weight f4 [32, 32, 3, 3]
00000000: d928 ed3d 31d9 5ebd c3c2 5fbd 39df f63d
00000010: c6b1 46bd fb50 0eba c9a1 b6bd ce9b f0bc
00000020: 997e 34bd 5317 cdbd 4f01 a3bd e079 3b3d
00000030: b93d 59be e549 11be 3e6c c4bd 82a7 e0bd
00000040: ef0d 0cbd dcfe e13d f093 053e 6fb3 e33b
00000050: 30d8 e13d 0f2f a9bc cb88 8d3d 057e 71bd
00000060: 66f9 b1bc 6761 26be 44df 39bd e92c 33bd
00000070: c139 fd3d d11c 25bc 378a 01be 2601 1d3d
00000080: 13ab 07be 598e d93d 22d3 3bbd f8c7 97bc
00000090: f764 abbd d5c7 2ebe aae5 d23d 67c1 3bbd
000000a0: 36d1 1c3e cffa b6bd d1ae 7bbc 143f ba3d
000000b0: 23fc 723e 0bb0 91bc 5fe2 f13d 5249 1c3e
000000c0: bfc8 e2bd 7855 5f3e 33f4 ed3c a5c1 86bd
000000d0: fac3 eebb cf93 b53c 4065 bcbd f62c 5abe
000000e0: 9032 f83c 187a 12bd 2e51 38be e26b d83c
000000f0: cf81 84bd f2bd 0abe cc81 28be 448d 00be
00000100: 5194 8bbe 2e5f 22bc e78b bfbc bb56 45be
00000110: ec25 cdbd 8feb 99bc b3c1 053e 780c 113e
00000120: 2b68 e6bd a4c7 48bb 8863 08be d742 d33c
00000130: 794a 853d b09d bbbd 8922 753e c3c4 573d
00000140: 2235 85bb f043 5bbc bb8a d53d 7606 02bd
00000150: b198 23be 3f80 27bd c759 1cbe 2ada 01be
00000160: 6ae7 fbbd 2f27 073d 087f 0abe 5c84 eb3d
00000170: 13d6 c6bd 26b8 2bbe 9b87 a13d 1763 d8bd
00000180: d6de 343e fc95 0e3e aa4c 67bd 99a5 4cbd
00000190: a70d 3d3d f7f8 1fbd 9404 adbd 8621 e4bd
000001a0: c583 ff3d 75d6 dd3c 5209 16bc b7aa cabb
000001b0: 4b34 9b3d f170 61bc b6d5 b5bd bbdd 453b
000001c0: af34 063e 31e7 28be 2d2f fd3c 8e7f 23bd
000001d0: 6772 debd 510b f13b 6bd9 5d3d cb31 89bc
000001e0: ebb0 6c3d e7c4 53bd 37d5 b33d bd40 c1bc
000001f0: c006 12be 1f56 bfbc 04b8 363e d85c d6bd
00000200: 4c64 0f3e c5cc 6ebc 728e e53d 34c7 033b
00000210: 8331 1f3e a636 babd 1c4e abbc aee2 1bbd
00000220: 536c 66bd 816f 47be 80c4 a1bd 9056 683d
00000230: 27f4 153e b35f 15be 3229 0ebd 29f5 a53d
00000240: 86c5 4fbc a5c7 b8bb 73b1 cb3d 32c9 a33c
00000250: 1790 65bd 870c b63d 2171 a93d 72ec a7bd
00000260: 921f 30bd 0161 463e 0eb7 703d 0ff3 29bd
00000270: d4f7 0d3e 9110 423e 85ba b53d 2839 f9bd
00000280: 9cf4 e93d 032a 7cbd 7f5f 423e aea6 813d
00000290: e860 2d3d 615d b53c a707 653d 46d5 bc3d
000002a0: 8fa7 a23d 8f9c 9a3d 1e9f 563b a54d 2a3e
000002b0: b8a8 0e3c 6cc3 a63c 41b6 563e c98d 453e
000002c0: f34f a9bc bea3 3e3e 2687 553e dd05 303e
000002d0: 7cfe 143e 1f21 75bd ef23 8abd a7fc a63c
000002e0: 8635 ecbd 6d95 db3c 32e5 1a3e ce46 d83d
000002f0: fcb9 253d 4ce6 dfbd 5273 413d 42e2 27bd
00000300: 5037 7dbd 0b9b 053e 5373 933d 7d1c 2b3d
00000310: d071 76bd 2ce6 183e bbb1 32be 2eda 11be
00000320: 2cf0 90bd d670 1b3e e40a 1d3d 3d50 133d
00000330: 86cb f93b a2af 1e3d 300c 333c 1511 8a3e
00000340: f96d f9bb 5fcf a03d 385e 6b3e c560 323d
00000350: 2494 81bd b0ce 123d efc7 993d 4fd2 233d
00000360: a436 93bd 93bd 00be 2179 793d f712 7fbd
00000370: 9b93 2b3d e75d d93c 21b4 d5bc 52d9 d83d
00000380: 517f fabd 00e1 d5ba f2bb a3bc 73a3 d9bd
00000390: 1c88 dd3c 4032 d63d 9299 443e fae7 103e
000003a0: 7916 0e3e a396 423e 804b 373d d533 35be
000003b0: e68c 2fbd fb29 323d 821b c9bd a5a6 08be
000003c0: 2db1 223e 3a73 173e dfb0 253d 81fd b53c
000003d0: 3126 0e3d bce2 23bd 9509 b3bd cb18 18be
000003e0: 536f 17bd 5477 1abd 061a a63d eeea d03d
000003f0: b54b b3bc a8c1 ce3d 8446 f7bd c84a 5c3e
0.11580057 -0.05440635 -0.0546291 0.12054295 -0.04850938 -0.0005428937 -0.08917577 -0.029371168
-0.044066045 -0.10014214 -0.07959234 0.045770526 -0.21214952 -0.14188345 -0.09590958 -0.109694496
-0.034192976 0.11034939 0.13044715 0.0069488804 0.110275626 -0.020652322 0.06910857 -0.058958072
-0.021725368 -0.16248094 -0.04537894 -0.043744 0.12364531 -0.010077671 -0.12650381 0.038331173
-0.13248853 0.10622854 -0.04585565 -0.01852797 -0.08368867 -0.17068417 0.10297711 -0.04583874
0.15314183 -0.08934557 -0.015361504 0.090940624 0.23728995 -0.01778414 0.11810755 0.15262344
-0.110734455 0.21809947 0.029047107 -0.065799035 -0.007286546 0.022165207 -0.091989994 -0.21306214
0.030297548 -0.03576097 -0.17999718 0.02641863 -0.064700715 -0.13549021 -0.16455764 -0.12553889
-0.27261594 -0.009910388 -0.02338214 -0.19271366 -0.10016999 -0.01878908 0.13062172 0.14164913
-0.11250337 -0.0030636573 -0.13319218 0.025788708 0.06508345 -0.09160936 0.23938955 0.05267788
-0.004065172 -0.013382897 0.10426851 -0.031744443 -0.15976216 -0.04089379 -0.15268622 -0.12680879
-0.12299998 0.032996353 -0.13525021 0.11499855 -0.097088 -0.16769466 0.07887193 -0.10565775
0.1766313 0.13924402 -0.056469597 -0.049962614 0.046155598 -0.03905579 -0.08448139 -0.111392066
0.12476305 0.0270798 -0.009157496 -0.0061849016 0.075783335 -0.0137598375 -0.08878653 0.0030191976
0.13106035 -0.16494443 0.030906284 -0.039916568 -0.10861664 0.0073560853 0.054162424 -0.016747376
0.05778591 -0.051701453 0.08780902 -0.02359044 -0.14260387 -0.023356495 0.17843634 -0.10466927
0.14003104 -0.014575188 0.1120881 0.0020107748 0.15546231 -0.090924546 -0.020911269 -0.038057975
-0.05625565 -0.19476129 -0.078988075 0.056723177 0.14643918 -0.14587288 -0.034707256 0.08103401
-0.012681371 -0.005639034 0.09945955 0.019993398 -0.056045618 0.08889108 0.08273531 -0.08199395
-0.042998858 0.19372942 0.058768325 -0.041491564 0.1386407 0.18951632 0.088734664 -0.12169105
0.11423609 -0.061563503 0.18981741 0.0633062 0.042328745 0.022139253 0.0559155 0.09220366
0.079421155 0.075493924 0.003274865 0.16631182 0.008707218 0.020356856 0.20967962 0.19292368
-0.020668006 0.1861715 0.20852336 0.17189737 0.14550203 -0.05984604 -0.06745135 0.020384146
-0.11533646 0.02680465 0.15126494 0.1056038 0.04046057 -0.109325975 0.04722912 -0.04098726
-0.06182033 0.13047425 0.07199731 0.041775215 -0.060167134 0.14931554 -0.17450611 -0.14243385
-0.07077059 0.15179762 0.038340464 0.035965193 0.007623139 0.038741715 0.010928199 0.26966158
-0.0076119867 0.07852053 0.2298516 0.043549318 -0.06327084 0.035841644 0.075088374 0.039995488
-0.07188156 -0.12572317 0.060906533 -0.062273946 0.041888814 0.026534034 -0.026086869 0.105883256
-0.12231315 -0.0016317666 -0.01998708 -0.106268786 0.027042441 0.10458803 0.19199207 0.14150992
0.1387576 0.19002776 0.044749737 -0.17695554 -0.04285898 0.043497067 -0.098197 -0.1334482
0.158879 0.14790049 0.04045188 0.022215607 0.03470439 -0.040011153 -0.08742062 -0.14853208
-0.0369714 -0.037711456 0.08110432 0.10201059 -0.021886686 0.10095531 -0.12073997 0.21512902

leak f4 [32, 1, 1]
00000000: d7c2 80c0 cbf9 7bc0 aab0 81c0 ea2a 7bc0
00000010: 73b9 84c0 5b4c 80c0 98bb 7cc0 0c0d 85c0
00000020: f0d9 7cc0 c468 84c0 d591 81c0 d75f 86c0
00000030: 551e 83c0 c05f 83c0 925c 7ac0 54bb 7ac0
00000040: 3762 79c0 1d54 82c0 26e9 71c0 c90f 81c0
00000050: 60ce 7cc0 b965 7ac0 6ad6 75c0 ebba 80c0
00000060: 2309 7dc0 df26 7ac0 8e7e 82c0 e943 84c0
00000070: 2a2d 81c0 5615 79c0 6c24 80c0 ba64 7ec0
-4.023784 -3.9371212 -4.0528154 -3.9244943 -4.147638 -4.0093207 -3.9489498 -4.1578426
-3.9508018 -4.137789 -4.049052 -4.199199 -4.0974526 -4.105438 -3.9119 -3.9176836
-3.8966196 -4.0727677 -3.7798553 -4.033177 -3.9500961 -3.9124587 -3.8412118 -4.022817
-3.9536827 -3.9086225 -4.0779486 -4.13329 -4.036763 -3.8919272 -4.004446 -3.9748979

thresh f4 [32, 1, 1]
00000000: 3f74 3c3f c110 353f 1bd7 2f3f 9a3d 3b3f
00000010: c04b 613f b24d 423f e0c3 5d3f 751d 203f
00000020: 8383 413f 3bcd 5b3f 00e2 413f 584d 5f3f
00000030: 4901 383f be3c 583f 36ef 373f 8a06 3d3f
00000040: 77ce 433f e1d7 2f3f dbef 313f 3f5b 623f
00000050: e243 3a3f 5207 393f 6c0c 3c3f 7084 573f
00000060: bdc3 483f bc7b 163f 051c 543f 95ca 653f
00000070: a719 743f a805 393f 84ae 573f 96d2 3a3f
0.7361488 0.7072869 0.686876 0.7314087 0.8800621 0.75899804 0.86627007 0.6254495
0.75591296 0.8586003 0.75735474 0.8722739 0.7187696 0.84467685 0.7184938 0.738381
0.76486915 0.6868878 0.69506615 0.8842048 0.7275983 0.72276795 0.73456454 0.8418646
0.7842367 0.58782554 0.82855254 0.8976224 0.9535164 0.72274256 0.84250665 0.7297758

weight f4 [32, 32, 3, 3]
00000000: bec6 26bc 84c4 b93d d598 243e 686a 07be
00000010: 7ffc d4bd 876f 173e 3f29 c43a ae58 fdbd
00000020: e166 f73c d5ad 2cbe 8e51 59bd 8d50 38bd
00000030: d060 83be 90ff 74be 91b3 86be 174e 76bd
00000040: 98d1 a9be 5b66 22be a99c dbbd ca85 0fbe
00000050: 29ad de3d eeb9 63bd 3c28 6fbd 4fc6 be3d
00000060: d1a0 1cbe 30dc 4ebd 1869 b5bc 7163 053e
00000070: 2252 08be 6e1c 12be 56d2 2f3e fd12 943d
00000080: 1ac2 603d 1355 ea3c b557 76bd 2415 1fbe
00000090: 7826 1ebe 4fbd ed3b 4538 41be 03d2 d1bd
000000a0: e694 71bc 8963 0ebe ec72 10bd e138 373e
000000b0: 027f 1abe 5492 38bc a794 fbbd d571 6fbb
000000c0: 9372 16be 904f 19be 831e 8bbd 1a30 393d
000000d0: 8c7b ba3d 4237 22be 792e 573d dd4e 97bd
000000e0: e827 1c3e 7052 553e e79d f73b 8c0f d73d
000000f0: 544f 5dbd 81f3 7dbc 03f7 f23d eb2b 37be
00000100: 3481 3ebe a98d 33be ff37 33be 9fc1 52be
00000110: 8d9e 2bbd 7486 91bd 6f52 9fbc bf63 bbbd
00000120: cd1c 1e3e 8a44 af3c a3c0 1abe 66ff 16bd
00000130: d238 0fbe 0e23 8dbe 4bd3 04bd 8641 e2bd
00000140: d228 33be 7a06 123d ab91 9ebd 003d 883d
00000150: 733a bdbd 7159 0b3e 3881 623d 85a6 c5bd
00000160: 8119 123d 7232 f0bd 79f8 66be e302 b5bd
00000170: 2d54 b6be f52a 00bc 3cbf 44be 17e9 05be
00000180: 8667 173e ad35 a93c 05f2 dd3d 6940 613d
00000190: ac57 923d 3fd4 15bc 4bb9 d6bd 2173 4dbd
000001a0: f919 e5bc c029 7dbd 587f babd 7671 fc3c
000001b0: 79be d2bc 8f6d 9d3d fd0e b8bc b1b8 e03c
000001c0: ef9c 46bd fcf3 283d 95e3 c5bd 10b3 69be
000001d0: dbce a23d d067 20bd c6cd 043e 7290 7abd
000001e0: 287c 063e 6edc 41bc 9ebe eb3d baeb 123e
000001f0: 2f70 493d ba8a 0d3d a057 c43d c716 693d
00000200: 409b 5bbe 8ae8 a63d b7e5 193e cef8 43be
00000210: 7c74 333e 4d2c fe3d d5cb dabc 8420 3bbe
00000220: 7e17 17be 3695 fa3c c3ee cbbd 940a 113e
00000230: 5070 1d3d 39ac 7abe 8a5a 1bbe 99ee 7e3e
00000240: 0913 5d3c f6ed 003e dd5a d2bd f130 3fbd
00000250: 50ae ce3d eb6f a4bc 3050 b0bd 7f0c ccbc
00000260: 8c05 66bc 0e86 a3bd efd9 003e 864e 67bd
00000270: b803 3f3e a70f eb3c 63b0 393e fb36 1e3e
00000280: 8e86 1c3e efbc 21b9 aa97 723e 61dd 693e
00000290: a794 0e3d 26a3 183b c1ec f73d e862 023e
000002a0: ff93 9bbd 8d0a b6ba edf5 18be 1aeb ad3d
000002b0: 078f a23d 8332 6f3d 2394 73be 7fc4 06be
000002c0: 1a42 a4bd bdff 81be 7d72 673c 8b23 f2bd
000002d0: 2bb4 1c3b 6339 5ebe ba85 adbd 4261 d03d
000002e0: 2f1f 42be 0d44 72be cbac 0cbd dab6 733c
000002f0: deed 0bbe 4fe8 02bd 4616 d93d 44a5 7bbd
00000300: 2fd6 8bbd 4042 c1bc 5e45 473d f812 4d3d
00000310: 1277 27be 732b bfbc e08b 8c3e 49b7 8c3d
00000320: 4474 45be 886a 603d 81f2 ac3d 7601 6bbd
00000330: cada 1a3e 95ab f0bd bbfd 84be ae59 2a3e
00000340: 093b 0d3e df46 5b3c 01e9 463e 7f4a 373e
00000350: 3bb7 343e e51b eabd 9664 8f3d 7545 9b3d
00000360: 1349 1d3e 1ac3 e4bc e9a2 ff3c 706d 9f3d
00000370: d561 0a3e 6f8e bdbd f7f5 4d3e 63be 463e
00000380: f975 2cbe 5fb6 03be 1b21 b53d 5210 43bd
00000390: 08ee b5bd 96c8 073e b66e 18bd 1c2e 1bbd
000003a0: f6cd 0ebd aa33 d0bd f89f 353b 16cd 39be
000003b0: 65fa 843d e33b 973d 97a7 153d af5a 0dbe
000003c0: 2b1d 3e3d c92f cd3d eccd cebc a31e f43d
000003d0: d812 a53c 82d2 cebd 3af7 c83d ddd9 12be
000003e0: e70f d23c b77d 523c 7c0d c03c fd9d 49be
000003f0: aac8 e4bd faa5 87bd 5253 bf3d 46fc cb3d
-0.01017922 0.090706855 0.16073926 -0.13224185 -0.10399722 0.14788638 0.0014965906 -0.1237043
0.030200424 -0.16863187 -0.053056292 -0.044998694 -0.256598 -0.23925614 -0.26308873 -0.060133066
-0.3316772 -0.15859358 -0.1072324 -0.1401588 0.108728714 -0.05559724 -0.05838798 0.09315168
-0.15295722 -0.050502956 -0.02214484 0.13026215 -0.13312581 -0.14268658 0.1717008 0.07230184
0.05487261 0.02860502 -0.060142238 -0.15535408 -0.15444362 0.0072552334 -0.18869121 -0.10245135
-0.014744973 -0.13905157 -0.035265848 0.17892791 -0.15087512 -0.011265356 -0.122842126 -0.0036536355
-0.14692144 -0.14971757 -0.06792929 0.04521189 0.09105596 -0.15841392 0.052534554 -0.07388089
0.15249598 0.20832229 0.007556665 0.10501012 -0.05403073 -0.01549995 0.1186352 -0.17887847
-0.18603975 -0.17534508 -0.1750183 -0.20581673 -0.041899253 -0.07105723 -0.019448487 -0.091498844
0.15440674 0.021394987 -0.15112548 -0.03686466 -0.13986519 -0.27565807 -0.032428067 -0.11047654
-0.1749604 0.035650708 -0.07742628 0.0665226 -0.09239664 0.13608338 0.055299014 -0.09650902
0.035668854 -0.11728372 -0.22555722 -0.08838441 -0.35611096 -0.007822742 -0.19213575 -0.13077198
0.14785585 0.020655477 0.10837177 0.054993067 0.07145628 -0.009144842 -0.104845606 -0.050158624
-0.027966486 -0.061807394 -0.0910632 0.030815821 -0.02572559 0.07686912 -0.022468084 0.027431818
-0.048489507 0.041248307 -0.096625485 -0.22822213 0.07949611 -0.039161503 0.12969121 -0.06117291
0.131333 -0.01183234 0.11510967 0.14347735 0.049179252 0.034556128 0.09587026 0.056906488
-0.21445942 0.08149822 0.15029036 -0.1913788 0.17524904 0.124107935 -0.026708523 -0.18274122
-0.14755055 0.030588727 -0.099576496 0.14164191 0.038437188 -0.2447976 -0.15171257 0.24895705
0.013493308 0.12590775 -0.10271237 -0.046677534 0.10091841 -0.020072898 -0.086090446 -0.024908302
-0.014039408 -0.07984553 0.12583135 -0.05647137 0.18653762 0.028693987 0.18133692 0.15450661
0.15285704 -0.0001542454 0.23690668 0.22838356 0.034809735 0.0023290603 0.12105704 0.12733042
-0.075965874 -0.0013888642 -0.14937563 0.08492108 0.079374366 0.05839778 -0.23786978 -0.13160895
-0.0802042 -0.25390425 0.014126417 -0.118231855 0.00239111 -0.21701579 -0.08472772 0.101748005
-0.18957208 -0.23658772 -0.034344476 0.014875138 -0.13664958 -0.031959828 0.105999514 -0.061436906
-0.06827962 -0.02359116 0.048650138 0.050066918 -0.16354015 -0.023336148 0.27450466 0.06870896
-0.19282633 0.054789096 0.084446914 -0.05737444 0.15122524 -0.11751477 -0.2597483 0.16635773
0.13792051 0.013383596 0.19424821 0.17899512 0.17648022 -0.11431102 0.07001607 0.07581607
0.15359907 -0.027925063 0.031205611 0.077845454 0.13513882 -0.09255683 0.2011336 0.19408564
-0.16841878 -0.12862538 0.08844205 -0.047622986 -0.088832915 0.13260111 -0.037214957 -0.03788577
-0.03486439 -0.10166104 0.0027713757 -0.1814464 0.064930715 0.07384469 0.03653678 -0.13804124
0.046414535 0.1001888 -0.025244676 0.11919906 0.020150587 -0.10098745 0.0981278 -0.14340921
0.025642348 0.012847356 0.02344393 -0.19689174 -0.11171086 -0.066234544 0.09342064 0.09960227

leak f4 [32, 1, 1]
00000000: 057a 82c0 b3d7 83c0 afa7 82c0 762b 71c0
00000010: e4e1 80c0 196f 81c0 00a6 74c0 5390 80c0
00000020: cee6 6dc0 e4e4 84c0 ef47 80c0 5777 7fc0
00000030: 91cb 7fc0 0e50 7fc0 8cb7 7cc0 3df8 7ec0
00000040: e5c9 79c0 e364 7bc0 2f14 85c0 ba5c 7ac0
00000050: 673d 71c0 f25a 80c0 408c 7cc0 f84f 7ec0
00000060: 3680 79c0 23d2 7ec0 6ee0 81c0 e0ca 85c0
00000070: 482c 7fc0 cf00 8cc0 ed1e 7dc0 00b1 7fc0
-4.077395 -4.1200805 -4.082969 -3.7682776 -4.0275745 -4.0448117 -3.8226318 -4.0176177
-3.7172122 -4.1529408 -4.008781 -3.991659 -3.9967997 -3.9892612 -3.9487028 -3.9839013
-3.9029477 -3.9280326 -4.158714 -3.9119096 -3.7693727 -4.0111017 -3.9460602 -3.973631
-3.8984504 -3.9815757 -4.058646 -4.181015 -3.9870777 -4.3750987 -3.9550126 -3.9951782

thresh f4 [32, 1, 1]
00000000: 5025 653f 55f8 3d3f 199d 7b3f 2595 273f
00000010: 2574 223f 78f1 3e3f 8bdc 3c3f d6b8 703f
00000020: 6fe8 303f c24c 493f 30c3 543f bf0b 6d3f
00000030: 12af 413f 4c9a 373f ef29 473f 5e26 323f
00000040: d850 663f acad 323f 0b4b 4a3f b8da 563f
00000050: 7cec 383f 6743 583f 1504 713f 034f 423f
00000060: 2f3e 303f 5c7e 353f 9527 6b3f 28f1 403f
00000070: 8fcc 5d3f f364 113f cd2d 363f f928 693f
0.8951006 0.7420705 0.98286587 0.6546195 0.6345847 0.745872 0.7377402 0.9403204
0.69104666 0.7863275 0.8311033 0.9259605 0.7565776 0.71719813 0.7779836 0.69589794
0.8996711 0.6979625 0.79020756 0.8392749 0.72235847 0.8447785 0.94146854 0.7590181
0.68844885 0.70895934 0.9185727 0.75367975 0.86640257 0.5679466 0.71163636 0.91078144

weight f4 [32, 32, 3, 3]
00000000: efba a3bd 17e5 5abe 9826 46be 2280 a83d
00000010: da30 52bb ff9d 2c3d b679 933d 037f 4a3e
00000020: 480a 423d 9a07 833d f23f 9ebc 0848 0fbd
00000030: 0236 61be c571 16be 7882 16bd 3b16 c3bc
00000040: fc17 993d 18d7 a3bd f039 e53b 5d50 253e
00000050: c335 4fbd f36a ffbc 2730 acbd b1ec 9a3d
00000060: 1ee6 c83d d6cf e73c 1850 443e df8b 83bd
00000070: 1561 66be b0bb 2dbe d7f5 183b 1e45 0ebe
00000080: 657f 253d 791f c23d ec17 edbc e4c0 02be
00000090: 4744 3a3d aaac 983b e4d0 203d 8168 6bbd
000000a0: b29e ddbd fc2d 8c3c 6226 c9bc 4cd0 26bc
000000b0: 0100 25be 2f1e 38be 5ead d33d c838 0cbe
000000c0: 77d9 343d 874d 13bd ab3d 5fbe 6236 e83d
000000d0: aa3a eebc 3e19 42be 7cbf 233e e776 063e
000000e0: 3ccf f1bc 82b8 933d 0f36 e6bd 84c1 953d
000000f0: 841b b33d c302 ddbd af41 023e b69a 46be
00000100: c3ed e7bd 2fed f4bc 5bff 513d e989 49bd
00000110: a33c a0ba fcb5 a03d 8533 993d 6f9b b1bd
00000120: cd85 e03d 95ef 02bd 9db8 873c b471 d13d
00000130: 19bb 183e b70c f33c 359e 8f3e 2af0 94bb
00000140: 076d f2bd 41b9 15b9 bc5c 24be b98b 06be
00000150: 4318 be3d 36a7 bfbd cd89 17be 7385 9b3d
00000160: b75a 763b 3017 173e 4ee2 4bbd f039 2a3e
00000170: 893d 32bd ee00 893d 7243 5f3d 5f01 953d
00000180: 9d31 babd 9959 8a3d 2d0e de3c 3551 21be
00000190: 2624 1e3d 9399 273e 0a69 1cbe e328 d63d
000001a0: d392 693d afa3 f8bd ba56 f43c 0367 a8bc
000001b0: ae2a c13c 5cb1 02be 8f7e 34be f359 093e
000001c0: 705e 323c e671 c2bd 5be2 24be 8fa8 08be
000001d0: e8d1 723d 33b7 93be d0fc 8bbe 01e1 b53d
000001e0: e4b7 81bd 65a1 9cbc d3f3 b63b 0c4f 0c3d
000001f0: f1de 7cbd 9ed3 a93c 1543 083e 7754 aabd
00000200: dd7b 833d f869 ff3d 5204 f13d 4970 313e
00000210: 79ac 21be f116 003e 89c2 223e 587d 58bc
00000220: eb72 0cbe 383c 16be edd1 1dbe 16d5 dcbd
00000230: 3b5e 40be a692 2ebe c73a e63d 5e6a 57be
00000240: b855 20be bbdc 87bd 5a81 3d3e 97ca 06be
00000250: bd76 92bc 0a1b 143d bd45 40be f2cc 56be
00000260: 1f2c 143e 70fd 4e3b 49eb 68be efa4 a1bd
00000270: 02e9 00be b90b f03d e44a 6d3c 2fb7 173e
00000280: 37aa 0fbb c7bb 683c 7f3f dd3d 7bf3 473e
00000290: b5aa 98bd 80cd 253d 6581 4bbd eec5 3a3e
000002a0: 10c6 b5bc 386e 7fbd a98e aa3c 7e50 5dbe
000002b0: d95d dd3c a3e8 d4bd f25e 19bd 40bd 13be
000002c0: b480 903d 1775 c8bc 8acc 44bd 44ec 593e
000002d0: 52fd 303e dfef 963d 7167 ad3b 3174 013e
000002e0: f452 b03c 0b34 563d d259 563d ff34 8fbd
000002f0: 66d7 dabd 6c7c 56bd d1d9 0fbd 19e6 553e
00000300: 265d 73be 0d14 0d3e 784a 6a3e 9b49 44be
00000310: ca1d 043e 9809 dd3b a37d e33d b20f eb3d
00000320: 151f f5bd fbe7 d93d c715 ebbd df75 c8bd
00000330: 24ed 793d 8b64 a23b 73e1 683d 94c1 b73d
00000340: d57e 223e 735f a93d 6f8d a6bd 003d 133d
00000350: e46a f0bd 1a2f 9fbd ce40 d4bd 793d 953d
00000360: 34b2 f03d 39a9 e3bc c426 b53c 7e70 dc3d
00000370: 5fa9 da3d 4a13 a9bc 704b 933d 6cd3 edbc
00000380: fd6d acbd 0046 a53d 2992 e83d 384f 233e
00000390: ae6e b1bd 6ef8 52be 34b8 193e bd9c 91bb
000003a0: 9dd0 d8bd 2017 c4bd 9eb1 5fbd 4496 eabd
000003b0: 19a2 6e3c 42cb 2abe a3d4 25be 90f0 5cbe
000003c0: 29e5 0abd ea2f 69bd 9be1 3fbe 0477 713b
000003d0: 52bd 863d ef92 f9bd db9e 33bb f3f1 583e
000003e0: 7cd2 023e 7c65 353c e710 0c3c 6595 6c3d
000003f0: 287a 333e 48a7 1abe df7b 15be 131c 26bd
-0.07994639 -0.21376453 -0.1935066 0.082275644 -0.0032072575 0.042142864 0.07200949 0.19775014
0.047373086 0.06397934 -0.0193176 -0.034980804 -0.21993259 -0.14691837 -0.03674552 -0.023814311
0.07475278 -0.0800001 0.006995432 0.16143937 -0.05058838 -0.031178927 -0.08407622 0.075646766
0.09809516 0.028297346 0.19171178 -0.06423163 -0.22497971 -0.16966128 0.0023339891 -0.13893554
0.040404696 0.09478659 -0.02894207 -0.12768894 0.04547527 0.004659255 0.039261714 -0.05747271
-0.10821284 0.01711177 -0.024554435 -0.010181498 -0.16113283 -0.17980264 0.103358015 -0.13693535
0.044152703 -0.035962608 -0.21800868 0.11338498 -0.029080708 -0.18954942 0.15991014 0.13131295
-0.029517762 0.072129264 -0.112407796 0.07312301 0.087454826 -0.107915424 0.12720369 -0.19394955
-0.11324646 -0.029898254 0.051268917 -0.049203787 -0.0012225102 0.07847211 0.0748053 -0.08672225
0.109630205 -0.031966764 0.016567523 0.10226765 0.14915122 0.029669149 0.2805039 -0.0045452313
-0.118372016 -0.0001427876 -0.16051 -0.13139237 0.09281971 -0.09358065 -0.1479866 0.07593813
0.0037590691 0.14754939 -0.049776368 0.16623664 -0.043515716 0.066896304 0.05450768 0.07275652
-0.09091494 0.06755371 0.027106369 -0.15753634 0.038608693 0.16367178 -0.15274444 0.10457017
0.057024788 -0.12140595 0.02982651 -0.020556932 0.023579922 -0.1276297 -0.17626403 0.13413219
0.0108867735 -0.09494381 -0.16101973 -0.1334555 0.059282213 -0.28850707 -0.27341318 0.08880807
-0.063339025 -0.019119928 0.0055832653 0.034255072 -0.06173605 0.02073079 0.1330684 -0.08316892
0.064201094 0.12471384 0.11768402 0.1732799 -0.1578845 0.12508751 0.15894522 -0.013213478
-0.13715713 -0.14671409 -0.15412112 -0.107828304 -0.18785946 -0.1704813 0.1124168 -0.2103667
-0.15657699 -0.06633898 0.18506375 -0.1316322 -0.017878884 0.0361586 -0.18776603 -0.20976618
0.14469956 0.0031584166 -0.22746004 -0.07892787 -0.12588885 0.11720986 0.014483187 0.14815973
-0.0021921524 0.014204926 0.108031265 0.19526474 -0.07454435 0.040479183 -0.049683947 0.18239567
-0.02218917 -0.062360972 0.020819979 -0.21612737 0.02702229 -0.103959344 -0.037444063 -0.14427662
0.07055798 -0.024469895 -0.048046626 0.21281534 0.17284134 0.073699705 0.005291872 0.1264198
0.02152393 0.052295726 0.052331753 -0.0699253 -0.10685615 -0.05236475 -0.035119835 0.20888557
-0.23766002 0.1377718 0.2287997 -0.19168703 0.12901989 0.0067455284 0.11107948 0.11477603
-0.11968819 0.1063995 -0.11478763 -0.09788107 0.06101717 0.0049558333 0.05685563 0.08972469
0.15868695 0.082701586 -0.08132445 0.035946846 -0.11739138 -0.07772656 -0.10363923 0.072871156
0.117527395 -0.027790653 0.022113211 0.10763644 0.10676836 -0.02063908 0.07192123 -0.029031478
-0.08419416 0.08069992 0.11356003 0.15948188 -0.086636886 -0.20602581 0.15011674 -0.0044437335
-0.10586665 -0.09574723 -0.05461275 -0.11454442 0.014565014 -0.16679099 -0.16194396 -0.21576142
-0.03390995 -0.05693046 -0.18738405 0.003684462 0.06579079 -0.121862285 -0.0027407918 0.21186046
0.12775606 0.011071559 0.008548952 0.05775966 0.17527068 -0.15102875 -0.14598034 -0.040554117

leak f4 [32, 1, 1]
00000000: 5d18 7cc0 1d10 7ec0 f99c 75c0 ae2f 7bc0
00000010: 1a5c 78c0 6b1d 65c0 b2ce 79c0 06fd 72c0
00000020: 9768 79c0 cc91 82c0 c3dc 6bc0 2459 7cc0
00000030: ef24 7bc0 ff58 7bc0 38c7 72c0 3104 7ac0
00000040: 0f92 86c0 fc67 69c0 a404 71c0 a25f 7ac0
00000050: 31c4 6cc0 8002 7dc0 6ca5 7ac0 3eaf 66c0
00000060: dd30 80c0 af97 76c0 fd9f 75c0 797a 76c0
00000070: f40f 76c0 62ee 80c0 d13d 7bc0 322f 82c0
-3.938987 -3.9697335 -3.8377059 -3.9247851 -3.8806214 -3.5799205 -3.9032407 -3.7966933
-3.8970087 -4.0802975 -3.6853492 -3.9429407 -3.9241292 -3.927307 -3.7934093 -3.9065058
-4.2053294 -3.6469717 -3.7659082 -3.912087 -3.6994746 -3.9532776 -3.9163465 -3.604446
-4.0059648 -3.853008 -3.83789 -3.8512251 -3.8447237 -4.0290995 -3.925648 -4.068261

thresh f4 [32, 1, 1]
00000000: 24e2 803f 3eff 503f e550 533f 4609 363f
00000010: 2004 5a3f a60a 393f 06ed 483f 5531 4b3f
00000020: 2b28 8d3f a8d2 523f baa7 353f 380c 5d3f
00000030: 568e 803f f9af 3d3f 30fa 253f 33b5 393f
00000040: cd2e 583f 4957 623f cccd 6d3f 58e8 5d3f
00000050: fb01 4d3f 2acb 5c3f d44f 433f 253d 513f
00000060: 545a 4f3f d495 733f af92 693f df34 5e3f
00000070: 1cd7 323f adec 853f 05ca 473f f816 633f
1.0069013 0.8163947 0.8254531 0.711079 0.85162544 0.72281873 0.7848667 0.7937215
1.1027883 0.82352686 0.70959055 0.8634677 1.0043437 0.7409664 0.6483488 0.72542113
0.8444641 0.88414437 0.92892146 0.86682653 0.80081147 0.86247504 0.76293683 0.81733924
0.80997205 0.95150495 0.91239446 0.86799425 0.6985948 1.0462853 0.7804263 0.8870692

weight f4 [32, 32, 3, 3]
00000000: a228 1b3d be71 1ebd 1c9b 193e a153 10bd
00000010: e41b 1f3e 68ca a73d 936d 8a3d 68a7 1fbb
00000020: 590f f3bc f272 0a3b 4f41 6c3b 301a 33bd
00000030: 674b 37bd a64f 44be a9b0 fe3c 7583 8abc
00000040: 9c88 d3bd 1644 f13c 3f50 e2bb 2672 03be
00000050: ce70 d2bb aa67 d1bd ea11 cfbd 7c0e c0bc
00000060: faa6 18be 05d8 aebd d2e2 dbbd b572 81bd
00000070: 2065 adb9 75ba c9bd 99ed e5bd ba5e 103e
00000080: b868 3e3d af06 46bd b737 c7bc 7515 9bbb
00000090: 20cd af3d 646e 493d 68b2 303d 23c7 0c3e
000000a0: 3a96 8dbd 550b 77be b728 8a3d 81f7 f93d
000000b0: e8a4 a0bd f5c6 493d ca7a e63d 8610 0e3e
000000c0: fbe6 f5bc b3ba 993d 2e79 5d3e de3a dfbc
000000d0: 522c 1dbe fe11 2f3e ed30 08bd b384 83bd
000000e0: 0eb6 3ab9 cd77 d4bd f3ec dbbd 88ed c03d
000000f0: 34c1 04bc 5335 38bd ec68 16be c501 23be
00000100: 2316 283d 3a69 5fbd 6baf 403d eb30 f0bc
00000110: 5c55 12be 524b 40be fdae b5bd 5883 6a3d
00000120: 1bed e3bd 56a8 913d 044f 28bc 614a 1f3e
00000130: fb85 77ba 3049 863d 1a82 9abd 6c00 2c3d
00000140: 4ec9 533d 6df3 203d fede 4c3e ac83 28be
00000150: 8b8a 243e 9a97 2b3e f8af 6b3d 85ea 76bd
00000160: 74c8 8abd bfb0 b4bd ee48 803d d171 163d
00000170: 9e62 153e b325 9b3c c665 503d c075 0dbd
00000180: 37e0 9a3d fbc1 b3bc a16c c3bb a8d0 b03b
00000190: fc82 84bc 4e32 fd3c 7dab 2fbe 8844 2c3d
000001a0: 7f18 4b3e e467 143e fc47 473e 373e 77bc
000001b0: 0526 4d3d c049 043c 40c0 3abe 6ccf 2cbd
000001c0: 8062 54bd ecfe cdbd 62db 503e 490d f0bd
000001d0: 716b bebd 9780 9c3c 2f4d 3c3e 47be f33d
000001e0: 5c85 513d e91b e43d fb76 0d3e 31ab cabb
000001f0: 6704 263e 3426 253c b4a9 b63d 303d bdbd
00000200: d8e1 643d 001f d63c bbd3 7b3c 4d0f a8ba
00000210: a019 62bc be54 48bd 8aa5 12bd 4855 38bd
00000220: afc4 253e 5a35 723e 1fe2 763d 50cb ccbd
00000230: ba5c 2bbd 3449 053e a265 0a3e 178e febc
00000240: 17a4 1fbe b9fd e73d aec8 49bd b3e2 c93c
00000250: c9ad f73d 0977 8a3d 0880 4a3e 418e ad3d
00000260: f589 6e3e 6782 303e a6b0 0d3e eb48 26be
00000270: e15b 9f3d 8b88 303e 3d87 0e3c a518 973d
00000280: 7b58 373d f7c6 35bd a9d7 a03c 11e3 75be
00000290: f0d9 66be d0a1 e33b 85c8 263c 5448 47be
000002a0: 2a35 e43d e9e7 b33d 6740 91bd 1b02 0a3e
000002b0: fa8d 9dbc 1cd6 84bd d742 2a3e 7147 c3bd
000002c0: 36fb 213e cd2e 16bd 2053 9f3d eb80 1c3d
000002d0: 3554 0ebe c01e 0abd ea26 51be 5d49 ed3d
000002e0: 3240 c6bd 6da7 4a3d ed39 23be 396e 12bb
000002f0: 42fd 2fbe e37e e43c ee78 10bb d5da 86bc
00000300: fe97 163e d708 ba3d 70d0 0d3e 7065 423e
00000310: f5a7 e7bb 0cc5 833d 974a 0e3d e706 0f3d
00000320: 660a 1bbe ed45 cebc 1956 0e3e 1858 0b3e
00000330: 0d3c d139 f0a7 063d 0a37 2e3e e0c6 fcba
00000340: a6e8 b03d e763 90bd 5c32 013e 9230 5abe
00000350: 2458 4ebe 099d 93bd 00b9 d6bb cd5b 00be
00000360: 7a33 3338 e951 183e 4184 20be 7191 65bd
00000370: 71f0 423b 9ce4 83bd bf00 0639 35c7 983d
00000380: de7a 1e3e e7cd da3d c8f2 e03d 2bf9 21be
00000390: 73ca 353e 0659 0cbe 519b 17be 37f6 593e
000003a0: 272c ee3d f9ce 82be a97c d7bd 913c 51be
000003b0: 4379 17be a037 39be 4056 dabd 3c7b 3e3d
000003c0: 18c1 25be 876c 2ebe fdb7 3a3d adcc 4dbd
000003d0: 9e5c 973c 8508 693d 18b6 363d bec3 163d
000003e0: b446 3cbe ada3 383e a824 503e 3776 abbd
000003f0: 1a10 873d 667c 07be 1b79 6dbe 558d 09be
0.037880547 -0.03868269 0.15000576 -0.035236005 0.15537983 0.08192903 0.06759181 -0.0024361257
-0.029670404 0.0021125642 0.003604967 -0.043726146 -0.044749644 -0.19171008 0.031090098 -0.016908387
-0.103287905 0.029451411 -0.0069065387 -0.12836513 -0.006422139 -0.102248505 -0.10110839 -0.023444407
-0.14907447 -0.08537296 -0.10736622 -0.06320707 -0.00033072475 -0.09850017 -0.11226959 0.14098635
0.046486586 -0.048346218 -0.02431856 -0.0047327825 0.08584046 0.049177542 0.04313889 0.1374784
-0.06913419 -0.24125417 0.06746047 0.12205411 -0.07843953 0.049262006 0.11253889 0.1387349
-0.030017367 0.07506313 0.21628258 -0.02724975 -0.15348938 0.17096707 -0.033249784 -0.06421795
-0.00017806163 -0.10374413 -0.10738554 0.094203055 -0.008102704 -0.04497273 -0.14688462 -0.15918644
0.041036736 -0.05454371 0.04704229 -0.0293202 -0.14290375 -0.18778732 -0.08871267 0.057254165
-0.11129209 0.07112186 -0.010272745 0.15555717 -0.0009442267 0.06556928 -0.07544346 0.04199259
0.05170565 0.03929465 0.2000694 -0.16456479 0.16068475 0.1675705 0.057540864 -0.06028225
-0.06776515 -0.08822774 0.0626391 0.036729638 0.145884 0.018938875 0.05087831 -0.034536123
0.07562297 -0.021943083 -0.0059638773 0.0053959675 -0.01617574 0.030907776 -0.17155261 0.042057544
0.19833563 0.14492756 0.19461054 -0.015090517 0.050085086 0.008074224 -0.182374 -0.04219
-0.05185175 -0.10058388 0.20396188 -0.11721284 -0.092978366 0.019104285 0.18388818 0.11901527
0.051152572 0.11138136 0.13814919 -0.0061849584 0.16212617 0.010079909 0.08919087 -0.09240186
0.055879444 0.026137829 0.015370305 -0.0012821943 -0.013800055 -0.04890894 -0.0358024 -0.045003206
0.1618831 0.23653165 0.06027424 -0.09999716 -0.041836478 0.13016206 0.13515332 -0.031073613
-0.15589939 0.11327691 -0.04926365 0.024644231 0.12093694 0.067609854 0.19775403 0.084743984
0.23294814 0.17237245 0.13836917 -0.16238753 0.077811964 0.17239587 0.0086992355 0.073777474
0.044762116 -0.0443792 0.019634085 -0.240124 -0.22544074 0.00694678 0.0101796435 -0.19461185
0.11142953 0.08784468 -0.07092362 0.13477366 -0.019232739 -0.064861506 0.1662706 -0.09535111
0.15818486 -0.036665726 0.07779527 0.038208883 -0.1389931 -0.03372073 -0.20425001 0.115862586
-0.09680213 0.049476076 -0.15940066 -0.002234353 -0.17186454 0.027892536 -0.0022044736 -0.01646177
0.14706418 0.09083717 0.13849044 0.18984008 -0.0070695826 0.06434068 0.034739103 0.034918692
-0.15140685 -0.025179828 0.13900031 0.13607824 0.00039908328 0.032875 0.17013183 -0.0019285344
0.08638124 -0.07050305 0.12616867 -0.2130759 -0.2015081 -0.072076865 -0.0065528154 -0.12535019
4.2724867e-05 0.14874996 -0.15675451 -0.056046907 0.0029745365 -0.06440088 0.00012779514 0.07459871
0.15476558 0.10683804 0.10983807 -0.15817706 0.1775301 -0.13705835 -0.14805342 0.2128533
0.11629515 -0.25548533 -0.10521824 -0.2043326 -0.14792351 -0.18087626 -0.10660982 0.046504244
-0.1618694 -0.17033587 0.04558562 -0.050244022 0.01847678 0.05689289 0.044607252 0.036807768
-0.18386346 0.18031187 0.20326483 -0.08372157 0.06594868 -0.13231048 -0.2319073 -0.1343282
